All audio features extracted and normalized
_________________________________________________________________
Layer (type)                 Output Shape              Param #   
=================================================================
reshape_1 (Reshape)          (None, 431, 40)           0         
_________________________________________________________________
conv1d_1 (Conv1D)            (None, 422, 100)          40100     
_________________________________________________________________
conv1d_2 (Conv1D)            (None, 413, 100)          100100    
_________________________________________________________________
max_pooling1d_1 (MaxPooling1 (None, 137, 100)          0         
_________________________________________________________________
conv1d_3 (Conv1D)            (None, 128, 160)          160160    
_________________________________________________________________
conv1d_4 (Conv1D)            (None, 119, 160)          256160    
_________________________________________________________________
global_average_pooling1d_1 ( (None, 160)               0         
_________________________________________________________________
dropout_1 (Dropout)          (None, 160)               0         
_________________________________________________________________
dense_1 (Dense)              (None, 3)                 483       
=================================================================
Total params: 557,003
Trainable params: 557,003
Non-trainable params: 0
_________________________________________________________________
None
model built and compiled
xa.shape= (17240, 73075)
Train on 58460 samples, validate on 14615 samples
Epoch 1/40

  400/58460 [..............................] - ETA: 14:55 - loss: 1.1432 - acc: 0.3000
…
