All audio features extracted and normalized
_________________________________________________________________
Layer (type)                 Output Shape              Param #   
=================================================================
reshape_1 (Reshape)          (None, 22050, 10)         0         
_________________________________________________________________
conv1d_1 (Conv1D)            (None, 22041, 64)         6464      
_________________________________________________________________
conv1d_2 (Conv1D)            (None, 22032, 64)         41024     
_________________________________________________________________
max_pooling1d_1 (MaxPooling1 (None, 7344, 64)          0         
_________________________________________________________________
dropout_1 (Dropout)          (None, 7344, 64)          0         
_________________________________________________________________
conv1d_3 (Conv1D)            (None, 7335, 64)          41024     
_________________________________________________________________
conv1d_4 (Conv1D)            (None, 7326, 64)          41024     
_________________________________________________________________
global_average_pooling1d_1 ( (None, 64)                0         
_________________________________________________________________
dropout_2 (Dropout)          (None, 64)                0         
_________________________________________________________________
dense_1 (Dense)              (None, 3)                 195       
=================================================================
Total params: 129,731
Trainable params: 129,731
Non-trainable params: 0
_________________________________________________________________
None
Epoch 1/40

   1/1141 [..............................] - ETA: 4:03:20 - loss: 1.1149 - acc: 0.4219
   2/1141 [..............................] - ETA: 2:03:40 - loss: 1.1219 - acc: 0.3750
…
